weights_nl_final.pth (torch, 619521 bytes, 12 tensors)

conv1.weight f4 [32, 3, 4, 4]
0.009974578 -0.15104729 -0.053590395 -0.20125346 -0.15982445 -0.102786325 0.009051705 -0.100757726
-0.066478424 -0.17154928 -0.13340047 -0.0431489 -0.16209225 0.08249645 -0.1675498 -0.0430027
0.18123986 -0.014476956 0.18867107 0.07027104 0.21142896 0.046712823 0.22123116 0.12173376
0.17805125 0.18791862 0.10854897 0.09856563 0.12540875 0.2809751 -0.011428808 0.23917532
0.007534177 -0.03266758 0.0059580687 -0.048103724 -0.11243964 -0.09484673 0.059325404 -0.08434788
-0.082223415 -0.111362785 0.031097062 -0.089007005 -0.042063132 -0.059064068 -0.14994366 -0.0061391736
-0.031438235 -0.19830813 -0.048184086 -0.07771545 0.05072465 -0.1841017 -0.10809036 -0.0656321
-0.10806612 0.00043174042 -0.021495309 -0.12184265 -0.19439217 0.09141066 -0.0973185 -0.046144918
0.29208624 0.050623726 0.11700237 0.22195709 0.32021654 0.15183564 0.2941639 0.024452876
0.2705051 0.1837663 0.09924459 0.035226285 0.20448877 0.24666625 0.20097724 0.22422597
-0.0632541 -0.091146864 -0.13513617 -0.057472445 -0.13934544 -0.20068517 0.018548649 -0.07179479
-0.18526861 -0.10241866 -0.029450733 -0.17788287 -0.1947793 -0.010600877 -0.2092819 -0.029373629
-0.077814996 -0.27213368 -0.007927907 -0.17120822 -0.02294074 -0.11477846 0.021909298 -0.1565818
-0.08539453 -0.17608646 0.03782723 -0.06217917 -0.13877313 -0.11358095 0.08042406 -0.15896456
0.032062758 0.0018889022 0.15638508 0.029967584 -0.0049808463 0.060553458 0.12094723 -0.007131339
0.051225595 -0.08188578 0.12991346 -0.026315996 0.015337932 -0.010737161 0.0966672 0.023852693
0.0074852332 -0.00019361709 0.0680221 -0.05428756 0.012213608 -0.08411435 0.17301154 -0.07425895
0.09963191 0.06646774 0.05426437 -0.046457622 0.12962125 0.120752044 0.1640287 0.059664596
-0.18261309 0.06575471 -0.13534549 -0.108614385 -0.18595313 0.08160687 -0.13950315 -0.10642288
-0.17612185 -0.0306163 -0.22516806 -0.0816155 -0.096839055 0.026897956 -0.027244756 -0.072592735
-0.046833202 0.14270797 -0.0015543363 0.07369028 0.045370914 0.2926781 0.11239301 0.10572549
0.037340853 0.2579905 0.060332924 0.11161255 0.18557698 0.15141906 0.06835108 0.036518253
-0.14811721 0.0948127 0.023985155 -0.037690494 -0.18321209 -0.0034330396 -0.025526583 0.029887082
-0.024787538 0.029340966 -0.16877432 0.08684567 -0.12544288 -0.017238805 -0.023696033 -0.0490227
-0.21299684 0.10287304 -0.08973087 -0.17520101 0.020201076 -0.07065688 -0.12254598 -0.0997023
-0.09225771 -0.07736866 -0.017081704 -0.09067649 -0.065473326 0.017336424 -0.08101013 -0.009662537
-0.028100519 0.28210336 0.0757264 0.121151894 0.20747761 0.08661811 0.063010484 0.09856367
0.23063873 0.085952066 0.03383343 0.21425226 0.0913312 0.17480241 0.022138977 0.18253635
-0.23212123 0.087378204 -0.03727428 -0.17344925 -0.13116437 -0.07429136 -0.13903362 -0.16169378
0.037363935 -0.10011488 -0.010661609 -0.049132526 -0.058299292 -0.12466183 -0.13411097 -0.048523482
-0.16444941 -0.034832872 -0.04659149 -0.09967049 -0.07534815 0.064388655 -0.0811867 -0.16139062
-0.05089176 -0.17761363 -0.15539943 -0.09979309 0.040244352 -0.17054512 -0.09833657 0.02854167
00000000: 6a6c 233c 24ac 1abe 9a81 5bbd 6315 4ebe
00000010: 05a9 23be a381 d2bd 9a4d 143c 115a cebd
00000020: d725 88bd 9daa 2fbe 229a 08be e7bc 30bd
00000030: 83fb 25be e6f3 a83d 2d92 2bbe 9923 30bd
00000040: f196 393e c130 6dbc fd32 413e 43ea 8f3d
00000050: d580 583e f255 3f3d 6c8a 623e 8d4f f93d
00000060: 1153 363e bd6d 403e ec4e de3d c7dc c93d
00000070: 276b 003e f8db 8f3e e53f 3bbc 60ea 743e
00000080: 42e1 f63b 71ce 05bd e73b c33b 6908 45bd
00000090: c146 e6bd 013f c2bd 32ff 723d 95be acbd
000000a0: c064 a8bd 2c12 e4bd 44bf fe3c 4e49 b6bd
000000b0: 644a 2cbd 2aed 71bd d58a 19be 1f2b c9bb
000000c0: 61c5 00bd 4911 4bbe ad5c 45bd 4729 9fbd
000000d0: a7c4 4f3d 2885 3cbe 7b5e ddbd 1f6a 86bd
000000e0: c551 ddbd 385b e239 ee16 b0bc a488 f9bd
000000f0: be0e 47be 8335 bb3d ec4e c7bd 7402 3dbd
00000100: 548c 953e d35a 4f3d f09e ef3d b848 633e
00000110: 6cf3 a33e cd7a 1b3e a79c 963e 6651 c83c
00000120: a57f 8a3e 3c2d 3c3e bf40 cb3d 7049 103d
00000130: 8165 513e 1496 7c3e facc 4d3e 7e9b 653e
00000140: 5e8b 81bd 35ab babd 2361 0abe 3a68 6bbd
00000150: 92b0 0ebe 6a80 4dbe 56f3 973c 2609 93bd
00000160: 0eb7 3dbe e0c0 d1bd aa42 f1bc ed26 36be
00000170: 3a74 47be 4daf 2dbc ff4d 56be f7a0 f0bc
00000180: 785d 9fbd 1b55 8bbe 0de4 01bc 3551 2fbe
00000190: 38ee bbbc f810 ebbd 217b b33c fb56 20be
000001a0: 54e3 aebd 0250 34be baf0 1a3d 96af 7ebd
000001b0: 8b1a 0ebe 219d e8bd 5fb5 a43d 9bc7 22be
000001c0: 3d54 033d 0a95 f73a 6923 203e 947e f53c
000001d0: 5e36 a3bb e706 783d 2eb3 f73d 02ae e9bb
000001e0: eed1 513d bbb3 a7bd 0908 053e a594 d7bc
000001f0: f34b 7b3c ebea 2fbc 74f9 c53d b966 c33c
00000200: b046 f53b b105 4bb9 2c4f 8b3d a25c 5ebd
00000210: 961b 483c 2544 acbd f029 313e 1415 98bd
00000220: d10b cc3d 3d20 883d 5144 5e3d 594a 3ebd
00000230: 6fbb 043e d94c f73d 24f7 273e dd62 743d
00000240: edfe 3abe 68aa 863d 0298 0abe 3871 debd
00000250: 7f6a 3ebe 8121 a73d ead9 0ebe 3df4 d9bd
00000260: 4959 34be 09cf fabc 7592 66be 0726 a7bd
00000270: 8e53 c6bd 1a59 dc3c 6530 dfbc 80ab 94bd
00000280: 2cd4 3fbd 0a22 123e dfba cbba eeea 963d
00000290: dad6 393d e7d9 953e 4e2e e63d 9b86 d83d
000002a0: b9f2 183d 5517 843e a81f 773d 1f95 e43d
000002b0: e407 3e3e 990d 1b3e a7fb 8b3d 2a94 153d
000002c0: 0aac 17be 292d c23d 847c c43c 5961 1abd
000002d0: f39b 3bbe d9fc 60bb 201d d1bc c1d5 f43c
000002e0: 3c0f cbbc 775c f03c 2dd3 2cbe 25dc b13d
000002f0: 1974 00be 6538 8dbc 2f1e c2bc 07cc 48bd
00000300: d81b 5abe 1aaf d23d d2c4 b7bd e567 33be
00000310: ba7c a53c 8eb4 90bd 63f9 fabd b830 ccbd
00000320: 9cf1 bcbd 7673 9ebd eeee 8bbc 98b4 b9bd
00000330: e116 86bd 1e05 8e3c a4e8 a5bd 9e4f 1ebc
00000340: 0f33 e6bc da6f 903e 7116 9b3d 7c1e f83d
00000350: 0375 543e d664 b13d a40b 813d c0db c93d
00000360: 8f2c 6c3e a307 b03d ec94 0a3d f264 5b3e
00000370: da0b bb3d 67ff 323e cd5c b53c cfea 3a3e
00000380: 30b1 6dbe 58f3 b23d eaac 18bd ae9c 31be
00000390: f44f 06be 1226 98bd d45e 0ebe 0e93 25be
000003a0: ed0a 193d 0809 cdbd 07ae 2ebc 303f 49bd
000003b0: 3dcb 6ebd b44e ffbd 6354 09be 8fc0 46bd
000003c0: 6d65 28be eaac 0ebd b8d6 3ebd 0b20 ccbd
000003d0: 2250 9abd 33de 833d 3645 a6bd 9543 25be
000003e0: e173 50bd 59e0 35be 0721 1fbe 5260 ccbd
000003f0: 43d7 243d 61a3 2ebe af64 c9bd 38d0 e93c

conv1.bias f4 [32]
0.08866614 0.074478514 0.015335256 0.077536665 0.14584826 0.11229269 -0.29986742 -0.22266416
-0.26250312 0.41580576 -0.2595842 -0.29182398 0.14409709 0.12993947 -0.19790514 0.14212146
0.07447275 -0.09532845 -0.2582147 -0.14078136 0.04367386 0.2773678 0.027177379 -0.21583909
-0.23449284 -0.08407279 0.08083677 -0.09354779 -0.056790475 0.1293185 0.26734847 -0.2737717
00000000: 9896 b53d 3188 983d ba40 7b3c 8bcb 9e3d
00000010: 3f59 153e b6f9 e53d 3988 99be 1302 64be
00000020: cf66 86be 7ee4 d43e 38e8 84be f469 95be
00000030: 308e 133e da0e 053e a5a7 4abe 4a88 113e
00000040: 2b85 983d 903b c3bd b834 84be fd28 10be
00000050: 5de3 323d 2703 8e3e 18a3 de3c ec04 5dbe
00000060: e41e 70be 5b2e acbd c08d a53d fc95 bfbd
00000070: 219d 68bd 126c 043e e6e1 883e ce2b 8cbe

conv2.weight f4 [32, 32, 4, 4]
-0.07337116 -0.037792973 0.034752797 -0.04904468 -0.16144644 -0.06782038 -0.090345405 -0.058149233
-0.21109182 -0.16204494 -0.13533145 -0.047869757 -0.09323971 -0.113935865 -0.10363819 -0.07086912
-0.040603355 0.08947334 0.044603936 -0.10429335 -0.18072194 0.04335628 0.057737064 -0.04033492
-0.18122642 -0.22151785 0.0054898383 0.026614023 -0.21278414 -0.27957463 -0.28540617 -0.21257979
-0.011461606 0.04620617 0.038351145 0.19062957 -0.18358327 -0.018734867 -0.055123523 0.011651315
-0.13433766 -0.17512774 -0.10667187 -0.0010470964 0.0011314852 -0.08185327 -0.06388246 0.12995526
-0.05064042 -0.10315974 -0.03767488 0.013358564 -0.20027012 -0.106085844 -0.053455696 0.025067663
-0.10767947 -0.21982376 -0.1041804 -0.07986311 -0.08975541 -0.07869877 -0.10903103 -0.042567458
-0.044293046 0.005283368 -0.06678492 -0.0018242447 -0.04858112 -0.05049346 -0.10282604 0.028430827
-0.11421824 -0.08254335 -0.047456145 0.035128012 -0.027864654 -0.08940939 0.00046460866 0.0822737
0.09473192 0.037684392 0.052700102 0.09553786 -0.14900081 -0.15789314 -0.01844944 -0.06844778
-0.19509192 -0.17927063 -0.13871564 -0.037579026 -0.12924756 -0.17316745 -0.1427321 -0.10071677
0.024489937 0.011640279 0.05622548 0.09544164 0.01786327 0.07889062 0.12258292 0.022558369
0.10554466 0.11189956 0.113542095 0.02644261 0.14071243 0.10658238 0.051537003 -0.0059030512
0.10497018 0.10669795 0.041263092 -0.11184859 0.15939376 0.04156359 -0.025996748 -0.020841751
-0.04567882 -0.05415807 -0.07951981 -0.046686087 -0.1209903 -0.04719976 -0.15962534 -0.10695968
-0.11034276 -0.1320218 -0.012700483 0.034094464 -0.089824036 -0.015686022 0.0026058261 0.0067225504
-0.032355964 0.10818536 0.09126539 -0.086664274 0.046419293 -0.049913347 -0.08002832 -0.10873524
0.068332456 -0.039621476 -0.09068736 -0.115783826 0.119402096 0.066984415 -0.0045205853 -0.2562949
-0.08283742 -0.027639544 -0.13662277 -0.255605 -0.20467842 -0.2606529 -0.22760473 -0.26363996
-0.06673653 0.009197246 0.10183197 0.10618778 0.048362076 -0.009090445 -0.023289045 0.052270345
0.11736915 0.13252038 0.0862375 0.081400424 0.047808524 0.07895392 0.13771813 0.11441843
-0.085105844 -0.0773066 -0.026465232 -0.041875187 0.112680726 0.08037381 0.04015363 0.1108436
0.07983391 0.114004724 0.09392071 0.114526704 0.15009925 0.22913215 0.10056727 0.04014198
0.091544375 0.12974432 0.10984186 0.069821194 0.09804443 0.17647652 0.14522514 0.038137376
0.013183859 0.015344714 0.06372584 0.01851143 -0.07907074 -0.20927213 -0.1962063 -0.0685637
0.0010469825 0.07631964 0.06631146 0.07324775 -0.06669313 0.077772595 -0.045712046 -0.04916663
-0.039702922 -0.040881377 -0.061756637 -0.027026875 -0.09760234 -0.0954215 -0.18729667 -0.13483635
-0.059981596 -0.11886928 -0.20321079 -0.06350149 0.02823446 -0.1149764 -0.03730175 0.014588944
0.20045449 0.109822325 0.067106426 -0.044608492 0.11688891 0.13965465 0.11258349 0.04484701
-0.09205519 0.0031400006 0.041346285 0.01262291 -0.010708746 -0.052767932 0.02153028 -0.010655862
-0.08233897 -0.069585934 -0.0037765023 0.061534796 0.041539762 0.005356687 -0.044489015 -0.035957597
00000000: 9e43 96bd cecc 1abd f358 0e3d 13e3 48bd
00000010: 3752 25be 69e5 8abd 0307 b9bd e42d 6ebd
00000020: 7428 58be 1cef 25be 5494 0abe 1413 44bd
00000030: 76f4 bebd 3557 e9bd 4240 d4bd d423 91bd
00000040: b44f 26bd cc3d b73d 9eb2 363d c097 d5bd
00000050: 2c0f 39be 5b96 313d b37d 6c3d 3b36 25bd
00000060: 6b93 39be 93d5 62be 1ae4 b33b a705 da3c
00000070: 16e4 59be 6824 8fbe c220 92be 84ae 59be
00000080: 76c9 3bbc ae42 3d3d 1716 1d3d 6634 433e
00000090: 41fd 3bbe dd79 99bc 34c9 61bd 28e5 3e3c
000000a0: d08f 09be b054 33be c876 dabd ba3e 89ba
000000b0: 584e 943a b0a2 a7bd cfd4 82bd fe12 053e
000000c0: 546c 4fbd 6a45 d3bd fa50 1abd e1dd 5a3c
000000d0: 9c13 4dbe 8943 d9bd 5cf4 5abd b35a cd3c
000000e0: 0e87 dcbd 7b19 61be 895c d5bd 458f a3bd
000000f0: afd1 b7bd d22c a1bd a94b dfbd 375b 2ebd
00000100: a06c 35bd 1a20 ad3b 88c6 88bd 7f1b efba
00000110: fffc 46bd 3bd2 4ebd 7596 d2bd c4e7 e83c
00000120: 41eb e9bd 7d0c a9bd 6061 42bd 64e2 0f3d
00000130: 6a44 e4bc 451c b7bd b896 f339 1d7f a83d
00000140: cf02 c23d f35a 1a3d 10dc 573d 5ba9 c33d
00000150: ab93 18be bdae 21be 4823 97bc 5a2e 8cbd
00000160: 2dc6 47be b892 37be 790b 0ebe 77ec 19bd
00000170: 7959 04be cf52 31be 5d28 12be 9844 cebd
00000180: 1f9f c83c deb6 3e3c b04c 663d e876 c33d
00000190: fe55 923c 6891 a13d c10c fb3d 54cc b83c
000001a0: cc27 d83d 992b e53d c288 e83d 2c9e d83c
000001b0: eb16 103e dd47 da3d 7718 533d 626e c1bb
000001c0: 9bfa d63d 7484 da3d 7d03 293d e010 e5bd
000001d0: 1e38 233e 953e 2a3d 22f7 d4bc 52bc aabc
000001e0: b719 3bbd dad4 5dbd 48db a2bd e939 3fbd
000001f0: c3c9 f7bd 8954 41bd d374 23be ad0d dbbd
00000200: 63fb e1bd b930 07be b015 50bc a3a6 0b3d
00000210: aaf5 b7bd f97f 80bc 82c6 2a3b d748 dc3b
00000220: b087 04bd 4990 dd3d 59e9 ba3d 0a7d b1bd
00000230: 2822 3e3d f071 4cbd e3e5 a3bd 95b0 debd
00000240: e3f1 8b3d 214a 22bd 4bba b9bd 1220 edbd
00000250: 1689 f43d 202f 893d 6b21 94bb 1639 83be
00000260: aaa6 a9bd 536c e2bc d7e6 0bbe a9de 82be
00000270: 3897 51be 4c74 85be 3711 69be d1fb 86be
00000280: 29ad 88bd 0cb0 163c 488d d03d fb78 d93d
00000290: 5017 463d 17f0 14bc abc8 bebc 6e19 563d
000002a0: 3d5f f03d 6cb3 073e 499d b03d 44b5 a63d
000002b0: dfd2 433d 98b2 a13d fb05 0d3e 3654 ea3d
000002c0: f94b aebd ec52 9ebd 9dcd d8bc 5185 2bbd
000002d0: 27c5 e63d 069b a43d 2278 243d f801 e33d
000002e0: f67f a33d 4f7b e93d 8059 c03d fa8c ea3d
000002f0: 9eb3 193e 9ea1 6a3e 36f6 cd3d eb6b 243d
00000300: 9e7b bb3d b2db 043e c5f4 e03d 6afe 8e3d
00000310: 85cb c83d 43b6 343e e6b5 143e f035 1c3d
00000320: 1d01 583c 6568 7b3c b182 823d 48a5 973c
00000330: d7ef a1bd 6f4b 56be 4eea 48be 206b 8cbd
00000340: e73a 893a 794d 9c3d 4ece 873d eb02 963d
00000350: 6896 88bd 3d47 9f3d 8e3c 3bbd f362 49bd
00000360: 889f 22bd 3b73 27bd 87f4 7cbd 7767 ddbc
00000370: bce3 c7bd 596c c3bd b3ca 3fbe 8a12 0abe
00000380: 43af 75bd bd71 f3bd 7d16 50be 120d 82bd
00000390: f44b e73c bf78 ebbd b8c9 18bd 7706 6f3c
000003a0: f143 4d3e 87ea e03d 186f 893d 65b7 36bd
000003b0: 7463 ef3d a101 0f3e 2c92 e63d 80b1 373d
000003c0: 6e87 bcbd 78c8 4d3b b95a 293d 52d0 4e3c
000003d0: bc73 2fbc 3023 58bd 4560 b03c ed95 2ebc
000003e0: 55a1 a8bd 1283 8ebd 327f 77bb e90b 7c3d
000003f0: 9925 2a3d 2687 af3b 1d3a 36bd 4648 13bd

conv2.bias f4 [32]
-0.012088706 -0.23452523 -0.018890586 -0.13011596 0.16804245 -0.06542519 -0.056525473 0.10207037
-0.15457696 0.19547936 -0.0149982385 -0.0809783 -0.07263421 -0.11284795 -0.0028248325 -0.16762608
-0.07494682 -0.007081271 -0.04798078 -0.105048746 0.08875167 0.039174967 -0.0437144 0.1743869
0.09463531 -0.016815422 -0.13597171 -0.1579685 0.0076457583 0.020940756 0.029688222 -0.12919557
00000000: b50f 46bc 6227 70be 6ec0 9abc 1e3d 05be
00000010: 5213 2c3e a4fd 85bd 4187 67bd 450a d13d
00000020: 6c49 1ebe be2b 483e 2cbb 75bc f3d7 a5bd
00000030: 3fc1 94bd d31c e7bd d320 39bb 2ca6 2bbe
00000040: b87d 99bd 020a e8bb 7f87 44bd cc23 d7bd
00000050: 70c3 b53d ee75 203d df0d 33bd 7b92 323e
00000060: 28d0 c13d 7fc0 89bc 2b3c 0bbe 7fc2 21be
00000070: 4589 fa3b f38b ab3c b734 f33c d84b 04be

conv3.weight f4 [32, 32, 4, 4]
0.08633949 0.06654928 -0.025594085 0.08970697 0.20243765 0.0561311 0.00071355025 -0.021605171
0.16758841 0.05765345 0.0821555 0.11290265 0.15105717 0.09122348 0.055232003 0.070306964
0.037596405 0.06208177 0.13753428 0.13886683 -0.16432087 0.05482314 0.02674385 0.14677826
-0.13442135 -0.14981592 -0.041346703 0.035757553 -0.0714391 -0.1290801 -0.060711417 -0.121865354
-0.3656921 -0.47103852 -0.33600146 -0.31890365 -0.47779524 -0.4510079 -0.31858203 -0.23161006
-0.37337893 -0.52956647 -0.33626673 -0.19947553 -0.19696395 -0.3715381 -0.2151117 -0.26065618
-0.07812757 0.031185407 0.0773371 0.1253896 -0.21889035 -0.17394356 -0.008356116 -0.07051641
-0.21964549 -0.15133567 -0.22575325 -0.088276036 -0.2815192 -0.2045273 -0.10863573 -0.1685828
-0.22207488 -0.17242607 -0.039496824 -0.0035569503 -0.2668309 -0.16564149 -0.22605342 7.2269513e-06
-0.13306466 -0.16704546 -0.15111734 -0.047532253 -0.080721244 -0.15401985 -0.18733077 -0.19783314
-0.13549905 -0.2022062 -0.13617393 -0.13071476 -0.061289053 -0.1918915 -0.17710802 -0.17004077
-0.046559665 -0.1339368 -0.10656044 -0.011915109 0.0131866345 -0.03002517 0.10418585 -0.007643163
-0.13098142 -0.14416628 -0.17326757 -0.10848018 -0.006877552 -0.019385027 -0.065591075 -0.02878152
0.054889653 0.0041763354 -0.038288757 0.036071192 -0.011487742 -0.0025713537 0.16174205 0.17970155
0.23155546 0.11138818 0.117127545 0.33278745 0.30448928 0.20500731 0.18923275 0.25610602
0.24255268 0.20443551 0.23279583 0.32615143 0.12240247 0.13117403 0.1044062 0.15863135
-0.018626286 -0.024283452 0.13674505 0.20743935 -0.06937147 -0.110256955 0.033561926 0.02340354
-0.061169766 -0.15932345 -0.17361666 -0.046996497 -0.20070769 -0.15060599 -0.13272288 -0.14785527
0.036383417 0.021045338 -0.005106996 -0.09156189 0.10461248 0.14292191 0.08543378 -0.018412389
0.18297933 0.13788661 0.18444209 0.0683454 0.24580415 0.14684473 0.15101776 0.18046592
0.26222312 0.17355646 0.23379762 0.14904836 0.19906016 0.17020868 0.060945965 -0.02168584
0.09799429 0.03865043 0.026637971 -0.0043027457 0.107961155 0.0809639 0.07678721 0.040945176
-0.07477699 0.028423155 0.09099168 0.18905485 0.0056273765 0.0019655796 0.051079575 0.06986653
-0.12616229 0.011942824 0.026751043 0.03912213 -0.049145423 -0.009396197 -0.031395465 0.044173658
-0.048598867 0.022380346 0.04671882 0.20301381 -0.094688885 -0.076124705 -0.059204325 0.00345179
-0.06427819 -0.0773589 -0.082233235 -0.10282878 -0.19134946 -0.17323741 -0.15633541 -0.17554739
-0.049423896 0.004418753 -0.013846244 0.12539361 0.0368698 -0.026138803 0.017992804 0.011043413
-0.09998256 -0.0028320306 -0.028605951 -0.06791211 -0.010160439 0.06573772 0.081393816 0.03652044
0.06621424 0.056368038 0.056497686 0.06676079 -0.067287035 0.09708508 0.0442884 0.09970416
0.035668053 -0.0637217 0.050490487 -0.033401534 0.09514273 -0.009847258 0.008705392 0.061342556
0.24993537 0.132186 0.21878198 0.21898912 0.23888049 0.092252485 0.016224284 0.04412271
0.22605294 0.10404371 0.07141836 0.10154221 0.040622946 0.10000786 0.069868036 0.053644188
00000000: c2d2 b03d fd4a 883d b0aa d1bc 4ab8 b73d
00000010: d14b 4f3e b9e9 653d 8c0d 3b3a 54fd b0bc
00000020: 4c9c 2b3e 0626 6c3d 2541 a83d 8139 e73d
00000030: bbae 1a3e 60d3 ba3d f43a 623d 19fd 8f3d
00000040: b0fe 193d 7449 7e3d c9d5 0c3e 1b33 0e3e
00000050: bb43 28be 3b8e 603d eb15 db3c 0a4d 163e
00000060: c0a5 09be 5869 19be 295b 29bd 8376 123d
00000070: aa4e 92bd 932d 04be 89ac 78bd 8b94 f9bd
00000080: ff3b bbbe f62b f1be 6208 acbe 5747 a3be
00000090: 94a1 f4be 82ea e6be 2f1d a3be 302b 6dbe
000000a0: 862b bfbe ab91 07bf 272b acbe 5043 4cbe
000000b0: ebb0 49be 3e3a bebe 3e46 5cbe ba74 85be
000000c0: 5901 a0bd 8a78 ff3c ea62 9e3d 2266 003e
000000d0: cb24 60be 431e 32be 17e8 08bc e86a 90bd
000000e0: bfea 60be bdf7 1abe dc2b 67be 11ca b4bd
000000f0: 4923 90be 9b6f 51be 697c debd f8a0 2cbe
00000100: 9967 63be 7690 30be 6cc7 21bd b91b 69bb
00000110: 0f9e 88be ec9d 29be 8c7a 67be 0a7f f236
00000120: 1a42 08be f70d 2bbe 81be 1abe 2eb1 42bd
00000130: 2e51 a5bd 61b7 1dbe a3d3 3fbe c594 4abe
00000140: 43c0 0abe 240f 4fbe 2e71 0bbe 17da 05be
00000150: 3b0a 7bbd 357f 44be ce5b 35be 2b1f 2ebe
00000160: 59b5 3ebd ba26 09be 5c3c dabd 9737 43bc
00000170: c10c 583c 58f7 f5bc 645f d53d 8073 fabb
00000180: fe1f 06be 53a0 13be 0e6d 31be db2a debd
00000190: 165d e1bb 59cd 9ebc 9d54 86bd 39c7 ebbc
000001a0: f9d3 603d a4d9 883b acd4 1cbd 63bf 133d
000001b0: 1537 3cbc 2884 28bb b59f 253e af03 383e
000001c0: e01c 6d3e 7c1f e43d 91e0 ef3d 1e63 aa3e
000001d0: 05e6 9b3e 70ed 513e 3bc6 413e 5420 833e
000001e0: bb5f 783e 8b57 513e 0862 6e3e 52fd a63e
000001f0: 25ae fa3d 7c52 063e ebd2 d53d 4270 223e
00000200: 2796 98bc 17ee c6bc e506 0c3e fb6a 543e
00000210: a112 8ebd 66ce e1bd 3b78 093d c8b8 bf3c
00000220: 268d 7abd b025 23be 91c8 31be 667f 40bd
00000230: 5186 4dbe 7538 1abe 82e8 07be 5f67 17be
00000240: c706 153d 4667 ac3c 9658 a7bb cd84 bbbd
00000250: 113f d63d 1f5a 123e e8f7 ae3d 94d5 96bc
00000260: ef5e 3b3e 2632 0d3e 63de 3c3e acf8 8b3d
00000270: 15b4 7b3e 775e 163e 66a4 1a3e 0fcc 383e
00000280: 1c42 863e c9b8 313e a568 6f3e 22a0 183e
00000290: 6dd6 4b3e 2f4b 2e3e 7aa2 793d 81a6 b1bc
000002a0: 3bb1 c83d ea4f 1e3d e037 da3c 0cfe 8cbb
000002b0: bd1a dd3d 67d0 a53d 9d42 9d3d 21b6 273d
000002c0: ae24 99bd add7 e83c d959 ba3d 9897 413e
000002d0: db65 b83b f4d0 003b d138 513d 2f16 8f3d
000002e0: b030 01be d6ab 433c 0125 db3c 873e 203d
000002f0: b64c 49bd 82f2 19bc 8898 00bd 70ef 343d
00000300: 9b0f 47bd fd56 b73c 3c5c 3f3d dae2 4f3e
00000310: 3fec c1bd 45e7 9bbd 3c80 72bd 6d37 623b
00000320: 49a4 83bd 586e 9ebd e669 a8bd e597 d2bd
00000330: 1df1 43be 2665 31be 6416 20be b2c2 33be
00000340: b670 4abd 30cb 903b 5bdb 62bc 2f67 003e
00000350: ca04 173d 0b21 d6bc a565 933c 6eef 343c
00000360: a8c3 ccbd 9799 39bb 0757 eabc 8115 8bbd
00000370: f877 26bc 7fa1 863d cdb1 a63d 7596 153d
00000380: 559b 873d 2ce2 663d 1e6a 673d e2b9 883d
00000390: c9cd 89bd 8bd4 c63d c167 353d b231 cc3d
000003a0: aa18 123d 8680 82bd 1dcf 4e3d 0cd0 08bd
000003b0: 31da c23d 6556 21bc 0fa1 0e3c 5542 7b3d
000003c0: 0fef 7f3e c45b 073e 6208 603e af3e 603e
000003d0: 169d 743e dfee bc3d cae8 843c 04ba 343d
000003e0: 6c7a 673e de14 d53d ca43 923d 5df5 cf3d
000003f0: 3f64 263d ecd0 cc3d f916 8f3d 02ba 5b3d

conv3.bias f4 [32]
-0.010315664 0.3021432 0.03524388 -0.0047084717 0.13106571 0.005269042 -0.015024069 -0.034232464
0.16749537 -0.10761922 -0.069143586 0.19217567 -0.015011793 0.073934026 0.23462228 0.13671677
-0.03818639 0.17400064 -0.09855224 -0.0837226 0.00488698 0.020151835 0.22216992 0.116565526
0.1446601 0.14423712 -0.09542691 -0.07537357 -0.044185553 0.2515489 0.011876087 -0.20467375
00000000: 0803 29bc 83b2 9a3e e35b 103d 8649 9abb
00000010: 1736 063e eea7 ac3b 8327 76bc 5737 0cbd
00000020: e883 2b3e 7767 dcbd 279b 8dbd b3c9 443e
00000030: 06f4 75bc b96a 973d d340 703e 7bff 0b3e
00000040: 5569 1cbd 392d 323e c2d5 c9bd c176 abbd
00000050: f622 a03b 7615 a53c 8380 633e e8b9 ee3d
00000060: c721 143e e5b2 133e 2f6f c3bd 755d 9abd
00000070: e9fb 34bd 04cb 803e eb93 423c ff95 51be

conv4.weight f4 [32, 32, 4, 4]
0.03535445 0.022535307 -0.050197497 -0.042168908 0.050469033 0.057753045 -0.02924723 0.0115431985
0.07432377 -0.0800199 -0.058803424 -0.12749392 -0.036553647 -0.044626936 -0.078677565 -0.1756695
0.019979158 -0.008294191 -0.021738665 -0.020287575 0.042599037 -0.09012136 -0.06233446 -0.06795397
0.002028449 -0.035993844 -0.04617847 0.057167307 -0.07510899 -0.037411783 -0.015977293 -0.023014521
-0.07671444 -0.023778077 0.05965034 -0.0226054 -0.06232063 0.06575167 0.027690437 0.020553596
-0.045905426 0.023985341 -0.00989593 -0.045513827 -0.12247246 -0.073380575 -0.09425255 -0.016362842
0.25057292 0.06390435 0.171085 0.16620527 0.0625323 -0.055901274 0.054567285 0.07284679
-0.024886342 -0.047766585 0.0797532 0.1254137 0.086766616 0.050428495 -0.024695057 -0.038003955
0.05259632 0.16965228 0.1553794 0.054885305 -0.032789186 0.16632736 0.21682847 0.06175297
0.008401676 0.14113861 0.089272186 0.015306123 -0.09192556 0.12228626 0.039576326 -0.010442364
0.00806734 -0.005567385 -0.030562932 -0.1972127 -0.043962438 0.038078655 -0.03733955 -0.003389378
-0.14134507 0.14500843 -0.09652956 -0.06680601 -0.16658413 0.069143206 -0.057457674 0.04418895
-0.03696808 -0.013497662 -0.05913904 -0.016263891 -0.08199916 0.0046878597 -0.116087675 -0.10903379
0.06636436 -0.019779783 -0.106511645 -0.13886586 0.07604182 0.021550028 -0.10362813 0.018250156
-0.06642504 0.0013822536 0.079678334 -0.000727704 0.017843068 0.02919662 0.100368425 -0.04655881
-0.09842238 0.035761796 0.03190634 0.072268106 -0.034614414 -0.0080143055 0.042920984 0.017783184
0.10666108 0.0036511058 0.055674072 0.039707787 0.0442091 -0.027190112 -0.0065250653 0.1547555
0.05498862 -0.035524346 -0.017562432 0.032303676 0.1417356 0.0054275496 0.01167316 0.01950465
-0.075525865 -0.1572135 -0.04957661 0.058641974 -0.10918994 -0.1250309 -0.19024085 -0.06897734
-0.15535416 0.0010277231 -0.022084162 0.0006308584 -0.04059327 -0.105825946 -0.06064002 0.015365815
-0.0617509 -0.103342935 -0.22810192 -0.20036367 -0.05771734 -0.20243023 -0.3410499 -0.335433
-0.06656881 -0.08419845 -0.125287 -0.36097416 -0.245214 -0.16322725 -0.1582328 -0.0898821
0.21525982 0.063629806 0.13092545 0.041960157 0.12370629 -0.061758146 0.01476787 0.08080356
0.056132365 0.09318074 -0.019678889 0.10793343 0.10945603 0.015430478 -0.16590217 -0.10305773
-0.11906521 -0.07992406 -0.017149376 -0.039366916 -0.18139112 0.039834727 0.06847188 0.1696985
-0.029201746 -0.06524924 0.16853885 0.06701042 -0.1999196 -0.05549799 0.0029768478 0.11703848
-0.060169607 -0.100134596 -0.079501145 -0.014133957 -0.08346463 0.0047985115 -0.014507024 0.001940391
-0.121345304 -0.09806069 -0.071308285 0.027105425 -0.09253158 -0.027574802 -0.035188816 0.018817255
0.0070268693 0.06637944 0.18986657 0.22469455 0.037460744 0.17364533 0.14199324 0.17874926
0.022445897 0.06287097 0.21390225 0.055427704 0.007604233 0.0711941 0.20429324 0.04389753
-0.048432995 0.059583973 0.13254811 0.008232383 0.047861025 0.031804044 0.0024618295 0.1210289
0.00079324964 0.041505776 0.039215855 0.010279307 0.04652063 0.09218862 -0.049926553 -0.10613687
00000000: d4cf 103d f79b b83c e49b 4dbd 4eb9 2cbd
00000010: 9eb8 4e3d 758e 6c3d e397 efbc af1f 3d3c
00000020: 1037 983d 79e1 a3bd dcdb 70bd c48d 02be
00000030: 47b9 15bd bcca 36bd b421 a1bd b5e2 33be
00000040: 55ab a33c 5ce4 07bc 4915 b2bc 2132 a6bc
00000050: 547c 2e3d 8c91 b8bd 6b52 7fbd 732b 8bbd
00000060: baef 043b 486e 13bd a325 3dbd 4428 6a3d
00000070: bed2 99bd 193d 19bd d0e2 82bc f388 bcbc
00000080: 761c 9dbd 3eca c2bc ea53 743d f62e b9bc
00000090: eb43 7fbd d0a8 863d 0ed7 e23c 0460 a83c
000000a0: 5407 3cbd e87c c43c 8a22 22bc b56c 3abd
000000b0: d7d2 fabd 8e48 96bd 7b07 c1bd 5e0b 86bc
000000c0: 184b 803e 49e0 823d e830 2f3e b731 2a3e
000000d0: ef10 803d bcf8 64bd f281 5f3d b330 953d
000000e0: 71de cbbc e5a6 43bd a555 a33d 736c 003e
000000f0: b2b2 b13d 1c8e 4e3d 4a4d cabc 09aa 1bbd
00000100: 3d6f 573d 54b9 2d3e c71b 1f3e 6acf 603d
00000110: f44d 06bd b851 2a3e 4808 5e3e aff0 7c3d
00000120: 2fa7 093c a486 103e 56d4 b63d 88c6 7a3c
00000130: 7843 bcbd 3871 fa3d c91a 223d 7316 2bbc
00000140: e02c 043c 9c6e b6bb 1d5f fabc 20f2 49be
00000150: f511 34bd 5df8 1b3d 5bf1 18bd 5420 5ebb
00000160: c3bc 10be 177d 143e 4ab1 c5bd 97d1 88bd
00000170: 0895 2abe f49a 8d3d bd58 6bbd 79ff 343d
00000180: d76b 17bd 4c25 5dbc c73b 72bd da3b 85bc
00000190: 2def a7bd 9e9c 993b 60bf edbd 1c4d dfbd
000001a0: 0aea 873d 3609 a2bc c722 dabd da32 0ebe
000001b0: d0bb 9b3d af89 b03c fc3a d4bd 5a81 953c
000001c0: da09 88bd bc2c b53a 652e a33d 64c3 3eba
000001d0: a02b 923c c02d ef3c f68d cd3d 73b4 3ebd
000001e0: ac91 c9bd f67a 123d 39b0 023d 4d01 943d
000001f0: d8c7 0dbd 6f4e 03bc eacd 2f3d 0aae 913c
00000200: 2071 da3d 6447 6f3b 7f0a 643d a2a4 223d
00000210: 9a14 353d ccbd debc 37d0 d5bb 3a78 1e3e
00000220: bf3b 613d fa81 11bd 17df 8fbc dc50 043d
00000230: 2323 113e 96d9 b13b c840 3f3c 37c8 9f3c
00000240: 4ead 9abd 93fc 20be d810 4bbd 9132 703d
00000250: fa9e dfbd 1a08 00be 7fce 42be fe43 8dbd
00000260: 2915 1fbe aab4 863a d8e9 b4bc 3160 253a
00000270: 2145 26bd 46bb d8bd ab61 78bd e6c0 7b3c
00000280: 83ee 7cbd 76a5 d3bd 8d93 69be 222c 4dbe
00000290: 0469 6cbd df49 4fbe 189e aebe e0bd abbe
000002a0: 3a55 88bd 3d70 acbd 3c4b 00be 9bd1 b8be
000002b0: 6119 7bbe 0b25 27be c707 22be 1b14 b8bd
000002c0: 126d 5c3e 5850 823d 5211 063e 6ade 2b3d
000002d0: b959 fd3d 1cf6 7cbd f0f4 713c 567c a53d
000002e0: 0deb 653d 8bd5 be3d 9f35 a1bc 340c dd3d
000002f0: 7c2a e03d 1ed0 7c3c 42e2 29be ee0f d3bd
00000300: 76d8 f3bd 3aaf a3bd d97c 8cbc 343f 21bd
00000310: 98be 39be bd29 233d fc3a 8c3d 72c5 2d3e
00000320: 8038 efbc 65a1 85bd 7395 2c3e c23c 893d
00000330: b9b7 4cbe dc51 63bd 3817 433b dfb1 ef3d
00000340: 6874 76bd 5e13 cdbd 7fd1 a2bd 1d92 67bc
00000350: 81ef aabd d53c 9d3b deae 6dbc b854 fe3a
00000360: e383 f8bd 0bd4 c8bd 140a 92bd 320c de3c
00000370: 3281 bdbd 8de4 e1bc 2622 10bd a526 9a3c
00000380: a741 e63b f2f1 873d 626c 423e 5416 663e
00000390: 7070 193d 15d0 313e ad66 113e 0c0a 373e
000003a0: 75e0 b73c 7fc2 803d 3109 5b3e 2908 633d
000003b0: ee2c f93b 36ce 913d 3f32 513e e5cd 333d
000003c0: ad61 46bd 530e 743d b1ba 073e 1ee1 063c
000003d0: ec09 443d f544 023d a556 213b 00de f73d
000003e0: 15f2 4f3a f601 2a3d cea0 203d 8a6a 283c
000003f0: 6b8c 3e3d 63cd bc3d c97f 4cbd 4a5e d9bd

conv4.bias f4 [32]
-0.003519792 -0.24567215 0.057470452 -0.10439513 0.030596253 -0.0028399972 0.12829879 0.011338364
-0.07911652 -0.16446197 -0.1160663 0.152049 0.057847656 0.045993008 -0.13905948 0.11140874
0.1297203 -0.08938208 -0.13348259 0.060642034 0.033035897 -0.10241072 0.0021218911 0.15121637
-0.009120694 -0.19527727 0.12268459 -0.009797844 -0.027028052 0.12265267 0.11048991 -0.24588971
00000000: 50ac 66bb 7b91 7bbe 2366 6b3d 1dcd d5bd
00000010: fea4 fa3c 3f1f 3abb c260 033e 8cc4 393c
00000020: d807 a2bd b868 28be 2bb4 edbd bcb2 1b3e
00000030: aaf1 6c3d 2a63 3c3d 9c65 0ebe 442a e43d
00000040: 66d5 043e f40d b7bd a9af 08be c863 783d
00000050: a650 073d b6bc d1bd 6d0f 0b3b 77d8 1a3e
00000060: f76e 15bc c4f6 47be 0f42 fb3d 2387 20bc
00000070: ef69 ddbc 5331 fb3d 8948 e23d 83ca 7bbe

lin.weight f4 [200, 512]
0.020263383 0.017429527 0.07805973 0.1041029 -0.034149062 0.010537655 -0.022686346 -0.11537312
-0.084396 0.05552562 0.09221376 0.047631927 0.15337138 0.018934185 -0.062044885 -0.007855238
-0.021658633 -0.006439897 0.058067355 0.21635672 -0.08654041 -0.10581376 0.013251175 0.10587728
-0.05553174 0.09335174 -0.0025325078 -0.0028995 0.005604709 -0.00046343004 -0.00750971 0.12932342
0.05290305 -0.034123328 -0.008207176 -0.06530886 -0.111414045 0.07438488 0.08075424 -0.0062917694
-0.08212243 -0.040395897 0.073272556 0.047877792 0.07776527 0.039523702 -0.028592665 0.0581156
-0.072963685 0.015737021 -0.03821945 -0.2537867 0.16924949 0.04681132 0.015994938 -0.1164721
-0.033940703 -0.09756077 -0.02402573 -0.046521783 0.022052543 -0.043531198 0.006988379 0.028719068
-0.07567752 -0.05027582 -0.0350116 -0.09934116 0.08780235 0.019478139 0.026097737 -0.09294398
-0.0073580854 -0.01103327 0.05201244 -0.12079284 -0.012194808 -0.06804956 -0.10683612 0.02344431
-0.14571956 -0.14160167 -0.05215801 0.033304106 -0.007435303 0.0987968 0.0694894 -0.11114758
0.010009872 -0.007629201 -0.04915256 -0.12339948 -0.065644376 -0.11663143 0.010613882 0.068180054
-0.122233175 -0.12217784 0.027950983 -0.0628845 -0.09000533 0.017753618 0.007916406 0.049959455
0.08795703 -0.10691243 -0.04383771 0.070472054 0.009201853 -0.09164963 -0.102620214 -0.22290942
-0.21877703 -0.14403154 -0.041144215 0.27317503 0.07049764 0.028167028 -0.0012141885 0.13415198
-0.022510411 0.015801128 -0.025229093 0.08615709 -0.092683226 0.10071605 0.08775461 0.17175911
-0.10084864 -0.022675082 0.02910094 -0.011052273 -0.052941922 0.00014875327 -0.108535185 -0.08941149
0.06168883 -0.065826185 -0.15374824 0.044181317 0.025019953 -0.1035134 -0.1416088 -0.10030181
-0.08925449 -0.024408858 -0.06320467 0.21090288 -0.0047890292 0.11465209 0.07428627 0.10572928
-0.021495564 0.074539304 0.0018205538 0.20552744 0.06822431 0.05456203 0.0456143 -0.055496953
-0.08937784 -0.1381556 -0.032351255 0.29102862 -0.08634021 -0.032309435 -0.16764235 0.10459323
0.074972555 -0.01661719 -0.021658013 0.10859005 0.17333125 0.09634147 0.11138983 -0.006526782
0.02497392 -0.19112536 -0.16792363 -5.8594986e-05 0.09029096 0.0098725315 -0.14868523 -0.049667876
0.016123788 0.12077031 -0.12736733 0.022442754 -0.0014222343 0.03176474 -0.069825925 -0.027806543
-0.032168854 0.018189235 0.053372562 0.06037059 -0.06485919 0.047939755 -0.08987713 0.1799106
0.044888344 -0.024933152 -0.0732993 0.047228247 0.23502296 0.057209276 0.13829628 0.0557478
-0.14058153 -0.10462355 0.07309258 0.053379074 0.0325439 -0.027521651 -0.074961066 -0.0013986372
-0.061550044 -0.10929066 -0.050053976 -0.11406114 0.061891127 -0.051328577 0.16802007 -0.13247035
0.14570329 0.059760626 -0.13491859 -0.14867112 -0.13106662 -0.035487887 -0.07034127 0.09766769
-0.070841484 0.028562676 0.056454424 0.102026284 -0.20989135 -0.027647309 -0.18865463 0.26922727
0.11116061 0.02965065 0.016128836 -0.07997992 0.1718564 0.15859734 0.05670701 -0.11092427
0.079205245 -0.040817436 -0.12918727 -0.026919946 -0.029179307 0.18927217 -0.04006646 0.09519597
00000000: 65ff a53c 5ec8 8e3c c8dd 9f3d e733 d53d
00000010: e3df 0bbd 21a6 2c3c b7d8 b9bc be48 ecbd
00000020: cfd7 acbd d56e 633d 91da bc3d b219 433d
00000030: 630d 1d3e dd1b 9b3c c722 7ebd 42b3 00bc
00000040: 726d b1bc c605 d3bb 09d8 6d3d 9e8c 5d3e
00000050: 193c b1bd e2b4 d8bd 751b 593c 30d6 d83d
00000060: 4075 63bd 322f bf3d 6ef8 25bb 8a05 3ebb
00000070: b5a7 b73b 87f8 f2b9 0314 f6bb 5c6d 043e
00000080: deb0 583d e7c4 0bbd 6477 06bc a7c0 85bd
00000090: 0c2d e4bd 1a57 983d 7b62 a53d 302b cebb
000000a0: ce2f a8bd 2b76 25bd ec0f 963d 811b 443d
000000b0: 6643 9f3d 9be3 213d 2a3b eabc a00a 6e3d
000000c0: fc6d 95bd edea 803c ff8b 1cbd 55f0 81be
000000d0: bd4f 2d3e 3abd 3f3d d107 833c ed88 eebd
000000e0: 6805 0bbd f1cd c7bd 9cd1 c4bc a08d 3ebd
000000f0: 89a7 b43c c54d 32bd c6fe e43b 4044 eb3c
00000100: d1fc 9abd 05ee 4dbd 5368 0fbd 6173 cbbd
00000110: b8d1 b33d 9e90 9f3c ecca d53c 6a59 bebd
00000120: 181c f1bb e3c4 34bc ff0a 553d 3d62 f7bd
00000130: bbcc 47bc 915d 8bbd e5cc dabd 480e c03c
00000140: 8237 15be 0700 11be a3a3 55bd e369 083d
00000150: d8a3 f3bb fa55 ca3d 7550 8e3d 58a1 e3bd
00000160: 7200 243c 60fe f9bb 3254 49bd deb8 fcbd
00000170: 8f70 86bd 76dc eebd d9e5 2d3c fca1 8b3d
00000180: 6355 fabd 6038 fabd 76f9 e43c 97c9 80bd
00000190: b754 b8bd 0970 913c d0b3 013c 49a2 4c3d
000001a0: d122 b43d e7f4 dabd 2c8f 33bd a753 903d
000001b0: 5ec3 163c cdb2 bbbd 8c2a d2bd 5e42 64be
000001c0: 1607 60be 017d 13be d686 28bd 99dd 8b3e
000001d0: 1161 903d 8abe e63c 6825 9fba 235f 093e
000001e0: c167 b8bc 5e71 813c 3ead cebc 2173 b03d
000001f0: b4d0 bdbd 3744 ce3d b0b8 b33d 9fe1 2f3e
00000200: bb89 cebd 18c1 b9bc 1865 ee3c 9814 35bc
00000210: a1d9 58bd a7fa 1b39 b247 debd 5f1d b7bd
00000220: 6dad 7c3d e1cf 86bd 2e70 1dbe 78f7 343d
00000230: a5f6 cc3c d5fe d3bd e601 11be 096b cdbd
00000240: 0fcb b6bd 16f5 c7bc 7371 81bd edf6 573e
00000250: 4aed 9cbb b7ce ea3d 6623 983d 9888 d83d
00000260: 7717 b0bc 10a8 983d a69f ee3a c975 523e
00000270: 30b9 8b3d 6f7c 5f3d 0fd6 3a3d c650 63bd
00000280: bb0b b7bd a978 0dbe c082 04bd b401 953e
00000290: 23d3 b0bd e656 04bd 70aa 2bbe fa34 d63d
000002a0: 368b 993d c620 88bc 256c b1bc 7664 de3d
000002b0: bf7d 313e ad4e c53d 5a20 e43d 9ede d5bb
000002c0: 1b96 cc3c 5eb6 43be 2cf4 2bbe e3c3 75b8
000002d0: 78ea b83d 66c0 213c f140 18be 8b70 4bbd
000002e0: 0916 843c 6d56 f73d 956c 02be ded9 b73c
000002f0: 446a baba be1b 023d e500 8fbd 8cca e3bc
00000300: 7dc3 03bd 9701 953c 309d 5a3d 2747 773d
00000310: e5d4 84bd 7a5c 443d 8011 b8bd 7c3a 383e
00000320: d7dc 373d 9c40 ccbc f21d 96bd 6872 413d
00000330: dca9 703e 4654 6a3d 8a9d 0d3e ce57 643d
00000340: 9bf4 0fbe df44 d6bd 90b1 953d 04a4 5a3d
00000350: c14c 053d 1675 e1bc 3085 99bd 7a52 b7ba
00000360: e61b 7cbd c8d3 dfbd 6605 4dbd e398 e9bd
00000370: 8d81 7d3d ea3d 52bd 740d 2c3e 4fa6 07be
00000380: 3e33 153e 8fc7 743d 1928 0abe 3e3d 18be
00000390: 5436 06be bf5b 11bd 150f 90bd ff05 c83d
000003a0: 5715 91bd 46fc e93c c13c 673d 28f3 d03d
000003b0: c2ed 56be 9c7c e2bc ae2e 41be 28d8 893e
000003c0: 2da8 e33d ece5 f23c 9f20 843c 83cc a3bd
000003d0: 20fb 2f3e 5767 223e 9c45 683d 432c e3bd
000003e0: 5c36 a23d 2f30 27bd ab49 04be 3887 dcbc
000003f0: 7109 efbc 90d0 413e ba1c 24bd 1bf6 c23d

lin.bias f4 [200]
-0.018256677 -0.10711804 0.010678364 0.012851819 0.007806712 0.008563358 0.032419708 0.07362984
0.086789034 -0.042643268 -0.07695435 -0.10181884 -0.036118302 0.05090387 -0.042245496 -0.028608184
0.0360075 0.058240645 0.004405228 0.06239877 0.028019717 -0.017610705 -0.00035629663 -0.03363062
-0.042484306 -0.048100915 0.025506997 0.06781785 -0.06058713 0.05111191 0.039607123 0.030002862
-0.024912594 0.11703115 -0.05255955 0.04068696 -0.102114215 -0.030290337 0.014234837 -0.053132974
0.10125384 0.03819332 -0.0171071 0.028878007 0.009124573 0.0052951975 0.08249809 -0.011213297
0.059538867 -0.049350403 0.10707718 0.05554459 -0.037466627 0.053613927 -0.008940985 -0.07237664
-0.033398565 -0.040903974 -0.032735396 -0.039296605 0.043504108 0.10130919 -0.009469973 -0.03481952
-0.054236524 -0.049391177 -0.021034911 -0.013947392 -0.049549486 0.09695506 -0.116269186 -0.020367738
0.010932745 0.019868258 -0.054983385 -0.01816449 0.040232677 0.036326833 0.061121922 -0.05721372
0.020796638 -0.0025694577 0.034352913 0.0034391682 0.027400775 -0.05151658 0.0643572 -0.0056543914
0.086541064 0.037181363 -0.016757924 -0.08646648 0.040142033 0.010248706 0.043543737 -0.08053491
-0.0861541 0.012009264 0.07937271 0.031562567 0.10701338 -0.024546621 -0.09625426 -0.009772262
-0.1045233 0.09057719 0.066133164 0.061488394 -0.01457654 0.01574339 -0.09830311 -0.026566762
0.055903107 0.060740154 0.0016241473 0.077265464 -0.058519043 -0.032052547 0.07821026 -0.08211662
-0.0103268325 -0.028029902 -0.04046286 -0.027551658 -0.044639915 0.05332598 -0.040275976 0.049435124
0.03807642 -0.013279903 -0.045854438 0.03431547 0.016734472 0.02450295 -0.038936544 -0.123605765
-0.012605947 0.08871069 -0.10054845 -0.020269161 -0.08791109 0.048751414 0.092013374 0.0387937
0.03530761 -0.037361845 -0.0054225447 0.08958553 0.056131616 -0.030425688 0.05107119 0.08086976
-0.015003978 -0.054693997 -0.06950039 0.03795292 0.011090969 -0.039020754 -0.049344707 -0.0042835725
0.041800287 -0.121449806 -0.06731736 0.006250061 0.0341122 -0.08306035 -0.0017382676 0.059488695
0.0030553304 0.033528056 0.05508941 -0.02771661 0.025888946 0.02280367 0.09666737 0.03930739
0.06904178 9.1553804e-05 0.063986175 0.008651966 0.0056475573 -0.017523628 0.041962337 0.07604359
-0.058187123 -0.049150344 0.008849533 0.048348587 0.09924999 0.058159757 -0.0061789174 0.059403956
-0.041003138 0.037429336 0.03320035 -0.015856598 -0.07403292 0.020217204 0.0060504116 -0.026635053
00000000: 078f 95bc b460 dbbd 4ef4 2e3c 7090 523c
00000010: 72cf ff3b 544d 0c3c 87ca 043d 3ecb 963d
00000020: 73be b13d b5aa 2ebd 3e9a 9dbd 6586 d0bd
00000030: c9f0 13bd 9480 503d 9d09 2dbd b65b eabc
00000040: 9a7c 133d be8d 6e3d bb59 903b da95 7f3d
00000050: 9b89 e53c 5344 90bc 53cd bab9 43c0 09bd
00000060: 0604 2ebd 7705 45bd 0df4 d03c 16e4 8a3d
00000070: 362a 78bd b95a 513d 143b 223d 90c8 f53c
00000080: 7f15 ccbc 07ae ef3d af48 57bd 5fa7 263d
00000090: 4221 d1bd 7123 f8bc 3c39 693c f6a1 59bd
000000a0: 2c5e cf3d 9970 1c3d 3024 8cbc 9291 ec3c
000000b0: 3c7f 153c 5683 ad3b c2f4 a83d fab7 37bc
000000c0: 07df 733d a623 4abd 484b db3d b982 633d
000000d0: 9b76 19bd 479a 5b3d 367d 12bc 343a 94bd
000000e0: efcc 08bd ed8a 27bd 8d15 06bd 7af5 20bd
000000f0: 5d31 323d 317b cf3d f227 1bbc ea9e 0ebd
00000100: 1e27 5ebd 674e 4abd 6851 acbc 9a83 64bc
00000110: 67f4 4abd 6090 c63d 8a1e eebd 3eda a6bc
00000120: 421f 333c c2c2 a23c 4236 61bd b2cd 94bc
00000130: 05cb 243d 72cb 143d fb5a 7a3d ef58 6abd
00000140: b65d aa3c 5964 28bb a4b5 0c3d ab63 613b
00000150: 9777 e03c 0d03 53bd b5cd 833d 7948 b9bb
00000160: 713c b13d 7c4b 183d ea47 89bc 5615 b1bd
00000170: f96b 243d 30ea 273c eb5a 323d 7def a4bd
00000180: 9071 b0bd 81c2 443c 298e a23d c047 013d
00000190: d529 db3d ff15 c9bc f420 c5bd d61b 20bc
000001a0: 5010 d6bd 8980 b93d d370 873d 41db 7b3d
000001b0: 71d2 6ebc 48f8 803c 2453 c9bd 8aa2 d9bc
000001c0: a8fa 643d abca 783d 57e1 d43a 5b3d 9e3d
000001d0: aab1 6fbd 8849 03bd b32c a03d c22c a8bd
000001e0: e031 29bc f79e e5bc 62bc 25bd 04b4 e1bc
000001f0: 58d8 36bd 586c 5a3d 6cf8 24bd 7c7c 4a3d
00000200: 05f6 1b3d f393 59bc ddd1 3bbd 618e 0c3d
00000210: bb16 893c 69ba c83c ed7b 1fbd 0525 fdbd
00000220: 2d89 4ebc f3ad b53d 59ec cdbd 830b a6bc
00000230: bb0a b4bd 90af 473d 8271 bc3d 25e6 1e3d
00000240: b69e 103d bc08 19bd 9aaf b1bb 9e78 b73d
00000250: 44ea 653d 4b3f f9bc 0630 513d 0b9f a53d
00000260: 3fd3 75bc d006 60bd 3856 8ebd 8574 1b3d
00000270: e5b6 353c 3ad4 1fbd ad1d 4abd 365d 8cbb
00000280: c736 2b3d adba f8bd afdd 89bd 50cd cc3b
00000290: 3cb9 0b3d 8b1b aabd 95d6 e3ba 6baa 733d
000002a0: f03b 483b b754 093d 6fa5 613d f20d e3bc
000002b0: 0e15 d43c c3ce ba3c 8bf9 c53d c900 213d
000002c0: c765 8d3d 9300 c038 2f0b 833d fac0 0d3c
000002d0: 250f b93b b68d 8fbc b3e0 2b3d bebc 9b3d
000002e0: 9f55 6ebd df51 49bd a2fd 103c 2b09 463d
000002f0: 9443 cb3d ed38 6e3d 8478 cabb 9051 733d
00000300: e8f2 27bd 814f 193d 17fd 073d b2e5 81bc
00000310: 929e 97bd 8d9e a53c 8842 c63b c131 dabc

lin2.weight f4 [3, 200]
-0.09982821 0.0019505067 -0.062279675 0.09607164 0.06201766 -0.013147573 0.008713819 0.017053148
0.048355464 -0.012517294 0.11878664 0.023621634 0.18200704 -0.1472121 -0.023385525 -0.0009372406
-0.14494137 -0.11102681 0.12174983 -0.061249435 0.062106557 0.23884943 -0.072666995 0.119531
0.009224318 0.047806922 -0.04403018 0.043644186 -0.028402764 -0.023779655 -0.051836744 -0.019382782
0.16673043 -0.09874035 0.027258769 -0.104804136 0.007951195 0.07032396 0.07833925 -0.034946684
-0.012757602 -0.081480324 -0.08066665 -0.083348446 -0.001380219 -0.03639223 0.028424997 -0.06826588
-0.18437298 0.038236 0.0053380234 0.03008206 0.0957476 -0.04412132 -0.04799776 0.13068673
0.02815949 0.06442355 -0.081211485 0.031089649 -0.13308206 -0.09957911 -0.12569946 0.049424365
0.05173394 0.11289142 -0.078743 0.049799938 0.07531473 0.017209472 0.05674926 0.1372569
-0.042571116 0.105666995 0.01748581 -0.012378553 -0.15799199 0.018647755 -0.0035794019 -0.032692216
-0.04917317 0.13748467 0.008658846 -0.024345879 -0.032063216 0.07046064 0.118769385 0.027034843
0.049482014 -0.04721668 0.010836632 -0.0033459573 0.008099087 -0.056244045 0.07498705 0.005981783
0.04073417 0.023741651 -0.096370906 -0.084537886 -0.09891213 0.043614645 0.12332694 -0.021134578
-0.068194196 -0.12145826 -0.11197345 -0.09418357 -0.05801525 -0.10324414 0.11303119 0.10280375
-0.14426741 0.07128192 0.0611914 0.064474955 -0.013470264 -0.0240551 0.11520498 0.05416038
-0.018203309 0.03323575 0.037756626 -0.07418682 0.060901918 -0.022521636 0.03523771 0.07471278
-0.05058038 0.03574544 0.056256577 -0.10693455 -0.05743217 -0.124721445 0.066087976 0.028927365
0.0189075 -0.04866865 0.10976116 -0.052808594 0.13877957 -0.027442796 -0.039940614 0.050564013
-0.20324412 0.1058794 -0.02225002 0.10351018 -0.031054717 0.012801117 -0.10321885 -0.06557505
0.07251599 -0.0487125 0.101381935 -0.113479 -0.09871848 -0.03305445 0.09434308 -0.048951283
-0.0027731345 -0.033090323 0.033098824 -0.044761084 0.06420935 -0.029714184 0.035965785 -0.07194099
-0.066663146 -0.13994941 -0.11933448 -0.017588085 0.051987436 0.020340117 -0.061790384 0.021599641
0.046888098 -0.07078584 -0.030466389 -0.01421277 -0.121844254 0.01758636 -0.002018272 -0.068178706
-0.033080157 0.057000525 -0.07508877 0.012507634 0.015960028 -0.11113815 -0.123180136 -0.020530712
-0.0010087618 -0.14964208 -0.02241094 -0.0547011 -0.05978433 -0.07068824 -0.083501294 0.04629489
-0.15662147 -0.12275555 -0.07700547 0.0062741055 0.046566796 0.09941741 0.07924891 0.003952338
0.22916551 -0.13236353 -0.0495482 -0.08666459 -0.12609035 0.06806047 -0.04433669 -0.1079476
0.04116848 0.2156602 -0.1272405 0.12527819 0.15662393 -0.30721706 -0.12175272 -0.1619074
-0.017706059 0.033798493 0.08798722 0.09708807 -0.30127978 0.21256357 -0.020351687 -0.013076654
-0.12959827 0.15740557 -0.025228448 -0.06190681 -0.14705789 0.0372127 0.164707 -0.20304723
0.04573216 -0.10221134 -0.010894107 0.05816636 0.26810604 0.023752626 0.1320434 -0.08000052
-0.02161227 -0.13276213 0.14474098 0.10183417 0.09372808 -0.02026016 0.06555059 -0.34101045
00000000: bc72 ccbd 25a8 ff3a f918 7fbd 35c1 c43d
00000010: 3b06 7e3d eb68 57bc 68c4 0e3c 0bb3 8b3c
00000020: 6110 463d 5615 4dbc 6946 f33d 2882 c13c
00000030: 0e60 3a3e c5be 16be 0093 bfbc 27b1 75ba
00000040: 836b 14be 0662 e3bd fa57 f93d b0e0 7abd
00000050: 7263 7e3d f294 743e 6fd2 94bd abcc f43d
00000060: 9821 173c 31d1 433d fd58 34bd 3fc4 323d
00000070: eaac e8bc 8dcd c2bc c452 54bd a4c8 9ebc
00000080: 62bb 2a3e 6138 cabd c84d df3c 8da3 d6bd
00000090: bb45 023c 0206 903d 5470 a03d 4124 0fbd
000000a0: 4305 51bc 28df a6bd 8e34 a5bd 97b2 aabd
000000b0: 77e8 b4ba 0510 15bd 8adb e83c fbce 8bbd
000000c0: 45cc 3cbe 5a9d 1c3d 96ea ae3b a76e f63c
000000d0: 5117 c43d 8fb8 34bd 4d99 44bd bed2 053e
000000e0: bbae e63c 7ff0 833d 3552 a6bd b8af fe3c
000000f0: aa46 08be 22f0 cbbd 5cb7 00be 3471 4a3d
00000100: f8e6 533d 9e33 e73d 0344 a1bd 05fb 4b3d
00000110: 9c3e 9a3d e1fa 8c3c e971 683d 138d 0c3e
00000120: 0d5f 2ebd f067 d83d 673e 8f3c 6acf 4abc
00000130: a7c8 21be 2dc3 983c 6694 6abb 46e8 05bd
00000140: ce69 49bd c8c8 0c3e d5dd 0d3c 0271 c7bc
00000150: b854 03bd ab4d 903d 5d3d f33d 2d78 dd3c
00000160: a7ad 4a3d 4766 41bd 218c 313c d947 5bbb
00000170: 08b2 043c 2860 66bd cf92 993d d502 c43b
00000180: dfd8 263d da7d c23c 1c5e c5bd 3322 adbd
00000190: 7192 cabd 45a5 323d d692 fc3d 6c22 adbc
000001a0: 66a9 8bbd 1cbf f8bd 5652 e5bd 51e3 c0bd
000001b0: 66a1 6dbd aa71 d3bd e67c e73d c68a d23d
000001c0: d6ba 13be 41fc 913d d5a3 7a3d 720b 843d
000001d0: 62b2 5cbc 330f c5bc 97f0 eb3d 46d7 5d3d
000001e0: 1b1f 95bc 3622 083d b1a6 1a3d 42ef 97bd
000001f0: 4a74 793d 4b7f b8bc 6b55 103d 0403 993d
00000200: 5f2d 4fbd cf69 123d 4c6d 663d 8000 dbbd
00000210: ff3d 6bbd f56d ffbd 2259 873d 15f9 ec3c
00000220: e7e3 9a3c c758 47bd 76ca e03d d34d 58bd
00000230: 3b1c 0e3e b7cf e0bc c598 23bd 361c 4f3d
00000240: 3a1f 50be 4dd7 d83d ad45 b6bc 25fd d33d
00000250: 7666 febc c7bb 513c 6864 d3bd 364c 86bd
00000260: 4383 943d c286 47bd 55a1 cf3d ae67 e8bd
00000270: ea2c cabd 1a64 07bd f236 c13d 2481 48bd
00000280: 7abd 35bb b889 07bd a292 073d 6657 37bd
00000290: 3180 833d 296b f3bc dc50 133d cc55 93bd
000002a0: b086 88bd e64e 0fbe a365 f4bd e314 90bc
000002b0: c7f0 543d 51a0 a63c ea17 7dbd bbf1 b03c
000002c0: bc0d 403d 2bf8 90bd a694 f9bc aedc 68bc
000002d0: 7b89 f9bd 4511 903c fc44 04bb 47a1 8bbd
000002e0: 0f7f 07bd 6279 693d 24c8 99bd d2ec 4c3c
000002f0: 9bbe 823c 669c e3bd de45 fcbd 0630 a8bc
00000300: 6e38 84ba c63b 19be 2697 b7bc 430e 60bd
00000310: 6ae0 74bd ffc4 90bd ba02 abbd b69f 3d3d
00000320: 6161 20be 4367 fbbd 0bb5 9dbd 0397 cd3b
00000330: d3bc 3e3d 5b9b cb3d 414d a23d 9d82 813b
00000340: 5daa 6a3e 4e8a 07be 0ef3 4abd 347d b1bd
00000350: d41d 01be 4a63 8b3d 649a 35bd a213 ddbd
00000360: 48a0 283d 07d6 5c3e 554b 02be ed48 003e
00000370: 0662 203e 8e4b 9dbe 7d59 f9bd 0ecb 25be
00000380: 4c0c 91bc 4a70 0a3d a532 b43d 1cd6 c63d
00000390: 5841 9abe 44aa 593e 95b8 a6bc 763f 56bc
000003a0: 69b5 04be ed2e 213e e4ab cebc ff91 7dbd
000003b0: 5896 16be 586c 183d f4a8 283e 9deb 4fbe
000003c0: a551 3b3d 2e54 d1bd 327d 32bc d93f 6e3d
000003d0: 3245 893e de94 c23c 6336 073e 50d7 a3bd
000003e0: 370c b1bc ccf2 07be fb36 143e 6f8e d03d
000003f0: 82f4 bf3d a3f8 a5bc 633f 863d ec98 aebe

lin2.bias f4 [3]
-0.030467836 0.048876517 0.016981313
00000000: af97 f9bc be32 483d 651c 8b3c
